models/onnx/regnetv2mv2_4.onnx (onnx, 140353 bytes, 116 tensors)

sub_modules.0.extend.0.bias f4 [12]
0	0x4082be6b	4.0857444
1	0xbfc06f5c	-1.5033984
2	0x3f8068e4	1.003201
3	0x403ea700	2.9789429
4	0xc01d0848	-2.4536304
5	0xbfca13a9	-1.578725
6	0xb9490814	-0.00019171863
7	0xbf41c8a4	-0.7569678
8	0xc00a4ae4	-2.160821
9	0xc01773c2	-2.3664403
10	0xc02976ce	-2.6478763
11	0xc005ac78	-2.0886517

sub_modules.0.extend.0.weight f4 [12, 1, 1, 1]
0	0x3f9a0147	1.203164
1	0xbff205b5	-1.8907992
2	0xbffad460	-1.9596062
3	0x3f8d4f6b	1.1039861
4	0x404ab19b	3.1670902
5	0x3f7b793d	0.9823187
6	0xc03adae4	-2.91961
7	0x3f9a0d0f	1.2035235
8	0xc0858d73	-4.1735168
9	0x40124d6e	2.285976
10	0x40030bdb	2.0475986
11	0xbf54949c	-0.8303926

sub_modules.0.extend.1.bias f4 [12]
0	0x3f1ab1f3	0.6042778
1	0xbfe0e66e	-1.7570322
2	0x3f558157	0.8340048
3	0x3ea06322	0.31325632
4	0xbe9f6919	-0.3113487
5	0x3daee1c2	0.08539154
6	0xbf96a724	-1.1769757
7	0x3f9de2a3	1.2334789
8	0xbe815e41	-0.25267223
9	0x3f3ef3ee	0.7459096
10	0x3f55cc6b	0.8351504
11	0x3eca2398	0.3948028

sub_modules.0.extend.1.running_mean f4 [12]
0	0x404a715b	3.1631687
1	0xbd3edc56	-0.046596847
2	0x401f8a2c	2.4928083
3	0x40081a60	2.1266098
4	0xc09c9538	-4.893215
5	0xc0178464	-2.3674555
6	0x400fec75	2.2488072
7	0xbfd7371e	-1.6813695
8	0x3f8578e6	1.042752
9	0xc083b730	-4.1161118
10	0xc087cdef	-4.2438884
11	0xbfb85cb6	-1.4403293

sub_modules.0.extend.1.running_var f4 [12]
0	0x40c64ada	6.196637
1	0x41783f75	15.515492
2	0x4184201a	16.515675
3	0x40a5a0f4	5.1758976
4	0x422d82df	43.377804
5	0x40869557	4.20573
6	0x421303a1	36.753544
7	0x40c6ddae	6.2145605
8	0x4295f91b	74.986534
9	0x41b288c2	22.316776
10	0x41910f67	18.13252
11	0x403fcd28	2.9968967

sub_modules.0.extend.1.weight f4 [12]
0	0x400f9281	2.243317
1	0x3fe66c46	1.8001792
2	0x40069f2f	2.1034658
3	0x3fdc57ac	1.7214255
4	0x3feafcd5	1.8358408
5	0x402c1146	2.6885543
6	0x40184a71	2.3795435
7	0x3fe77eac	1.8085532
8	0x401ae458	2.420187
9	0x400085b9	2.0081618
10	0x3fdec1c3	1.7402881
11	0x3fde5690	1.7370167

sub_modules.0.fc1.bias f4 [40]
0	0xbfff1755	-1.9928995
1	0xbdba024a	-0.09082468
2	0x3fd926e7	1.6964997
3	0x3f96ea06	1.1790168
4	0xbf271f01	-0.65281683
5	0xc01719ed	-2.3609574
6	0xc0015e41	-2.0213778
7	0x401369ad	2.303325
8	0xbfb74ea1	-1.4320871
9	0x40358743	2.8363807
10	0xbfca973a	-1.5827401
11	0xbe621791	-0.22079302
12	0x3f69aebc	0.9128225
13	0x3da0a26d	0.0784348
14	0xbd48e16b	-0.0490431
15	0xbfd1d9d0	-1.6394596
16	0x3e222e5c	0.15837997
17	0x4028041e	2.6252513
18	0x3f7a26fb	0.9771573
19	0xbfc3b64c	-1.5290008
20	0x3f4f8ff3	0.81079024
21	0xc00a2bfb	-2.1589344
22	0xbea794e2	-0.32730776
23	0x3f321a3e	0.6957129
24	0xbfc6ae42	-1.5521929
25	0x3fa406b7	1.2814549
26	0xc011e14d	-2.2793763
27	0xbe5f8ee6	-0.21831855
28	0xbf41858a	-0.7559439
29	0x40087e2b	2.1327007
30	0x3e92f303	0.28701028
31	0xbee6e0b1	-0.450933
32	0xbf0e4613	-0.55575675
33	0x3e8c35ed	0.27384892
34	0xbff3c0f8	-1.9043264
35	0xbfb4f2bf	-1.413658
36	0xbf930b18	-1.148776
37	0xc02866b9	-2.6312697
38	0x404044f0	3.0042076
39	0xc02e8570	-2.7268944

sub_modules.0.fc1.weight f4 [40, 5, 3]
0	0xbe4cc1dd	-0.19995828
1	0x3eacefe4	0.33776772
2	0x403d29bb	2.955672
3	0x3f3f21c4	0.746609
4	0xbf612d41	-0.87959677
5	0x3f251840	0.6449013
6	0xbe862723	-0.26201734
7	0xbfef4dae	-1.8695581
8	0x3da43bb0	0.08019197
9	0xbfbb3688	-1.4626017
10	0xbe7fbc98	-0.24974287
11	0xbf3c6bfe	-0.73602283
12	0xbfa43e47	-1.2831506
13	0x4043e491	3.0608256
14	0xbf3385b0	-0.70125866
15	0xc0812fa2	-4.0370646
16	0x4014dfe6	2.3261657
17	0x400f592d	2.2398179
18	0x3e938bdb	0.2881764
19	0xc08f4321	-4.4769444
20	0x40024729	2.0355933
21	0x3f2dce9f	0.67893404
22	0xbfe65f92	-1.7997916
23	0x3fb3b42b	1.4039358
24	0xc00b9abc	-2.1813192
25	0xbf81fe9d	-1.0155827
26	0x3ff84b33	1.9397949
27	0xbfd831ff	-1.6890258
28	0xbf20d261	-0.6282101
29	0xbff0a8d4	-1.8801522
30	0x3c951d0b	0.018202325
31	0x3ff9d7ab	1.9518942
32	0xbf8411c7	-1.0317925
33	0xbf48b528	-0.7840142
34	0x3f1b5b96	0.60686624
35	0x3fe117e2	1.7585413
36	0xbf4573e2	-0.7712995
37	0xbf224753	-0.6339008
38	0x3f0963f6	0.53668153
39	0x3f096d9b	0.5368287
40	0x3acfc85c	0.0015852558
41	0xbfe27d60	-1.7694511
42	0x3f6e274a	0.930287
43	0xbf189876	-0.59607637
44	0x40b632bf	5.6936946
45	0xbf64e91f	-0.89418215
46	0x4044055d	3.0628273
47	0xc0972e4f	-4.724403
48	0x3ff3ba71	1.9041272
49	0x3f4b3797	0.793817
50	0x407097e7	3.7592714
51	0xbd2ef448	-0.042713434
52	0xbfde5610	-1.7370014
53	0xc07d05bb	-3.9534748
54	0x3d8450b3	0.06460705
55	0xbfd3c201	-1.654358
56	0xbe8ee683	-0.2791024
57	0x3e5d9600	0.21639252
58	0xc02ba194	-2.681737
59	0xbf5491c9	-0.8303495
60	0x40021cdb	2.0330112
61	0xbfe7df77	-1.8115071
62	0xbe92fb27	-0.2870724
63	0xc0726d71	-3.7879298
64	0xbfb7f64c	-1.4372039
65	0xbf879ce5	-1.0594755
66	0xbf881449	-1.063119
67	0x3e03b00a	0.12860122
68	0xbe5a90bd	-0.21344276
69	0x3ffb82e7	1.9649323
70	0x3f940ad6	1.1565807
71	0x3f1de6cc	0.61680293
72	0x3fa08d7a	1.2543175
73	0x400dc04f	2.2148626
74	0x4017bc62	2.370873
75	0xc0842bcc	-4.1303463
76	0x4035ad8b	2.8387172
77	0x3fe15d4d	1.7606598
78	0xbf87bbb1	-1.0604154
79	0x3e84294f	0.25812766
80	0x3f9009de	1.1253011
81	0x3faa42d2	1.3301642
82	0x3f7990ad	0.9748638
83	0x405b5721	3.427193
84	0xbf37aefd	-0.71751386
85	0x3fa3f5df	1.2809409
86	0x3ff24721	1.8927957
87	0xbfe0be87	-1.7558144
88	0x3f9aef73	1.2104324
89	0xbf90fb79	-1.1326743
90	0x3fbc94be	1.4732893
91	0x4006029f	2.09391
92	0x3fcde50c	1.6085525
93	0x402b3229	2.6749365
94	0xc0229925	-2.5405972
95	0xbe0ba7de	-0.13638255
96	0x3e3c7412	0.18403652
97	0xbfcd7a44	-1.6052938
98	0x3fd0be02	1.6307986
99	0xbf8a7ccb	-1.0819334
100	0x3f0ccb39	0.54997593
101	0xc00b0460	-2.172142
102	0xc0215d38	-2.5213146
103	0x3ed58acb	0.41707453
104	0xbfa9bb23	-1.3260235
105	0xbf9cd22a	-1.2251637
106	0x3f48e3bd	0.784725
107	0xbfe50c2f	-1.7894343
108	0xbda8714a	-0.08224733
109	0xbf0880d6	-0.5332159
110	0x40978273	4.734674
111	0x3f20fce9	0.6288591
112	0x3f4cfef0	0.80076504
113	0x400ef606	2.233766
114	0x3faf5634	1.3698182
115	0x400775ea	2.116572
116	0x405704de	3.359672
117	0xc03756ea	-2.8646798
118	0xbf0a10ec	-0.5393207
119	0xc0c5486b	-6.16509
120	0x3f1b54c4	0.6067622
121	0xc00f4ed6	-2.2391868
122	0xc0486c57	-3.1316125
123	0xbf8f5e2a	-1.1200612
124	0xbfdca5de	-1.7238119
125	0x404bb5a1	3.1829607
126	0xbfb3439d	-1.4005009
127	0x400c87d8	2.1957912
128	0x3c6c4d25	0.01442269
129	0x3fac7818	1.347415
130	0x405e7569	3.4759161
131	0xbf2d227f	-0.6763076
132	0x4006bb0e	2.105167
133	0xbfa08ff2	-1.2543929
134	0xbf21b453	-0.6316578
135	0x3e868b70	0.26278257
136	0xc0c2bd31	-6.0855947
137	0xc0bf56b8	-5.979336
138	0x4095e8ad	4.684653
139	0x3e4115f3	0.18856029
140	0xbff0922b	-1.8794607
141	0x3f9d1d4e	1.2274568
142	0xbf3c12cd	-0.7346619
143	0xc04b7ba0	-3.1794205
144	0xc01e8387	-2.4767778
145	0x406a6033	3.6621215
146	0x41060e30	8.378464
147	0xbc98867c	-0.018618815
148	0x40826c7f	4.075744
149	0xc036d461	-2.8567126
150	0xbf2372a5	-0.6384681
151	0x40269a6d	2.6031754
152	0x40830cf5	4.0953317
153	0xbff53f27	-1.9159898
154	0xbf582864	-0.8443663
155	0x3f80d174	1.006392
156	0xc02bbb8b	-2.6833217
157	0xbf6970c1	-0.91187674
158	0xbfaaf75f	-1.3356742
159	0x3f9f72c1	1.2456895
160	0x3fa56f6a	1.2924626
161	0xc08b5aca	-4.3548326
162	0x405666dc	3.350028
163	0xbfd66281	-1.6748811
164	0x3f46c135	0.7763856
165	0xbfd10e5f	-1.6332511
166	0x3ed53ca3	0.41647825
167	0xc019ece4	-2.4050837
168	0x3ffaf999	1.9607421
169	0x4010dbbd	2.2634118
170	0x406bf6a9	3.68693
171	0x3fc270c4	1.5190663
172	0x3fe81605	1.813172
173	0xc02230e3	-2.5342338
174	0x3fbed9ba	1.4910195
175	0x3eabf3c7	0.33584425
176	0x3f6cfe80	0.92575836
177	0x3ea42122	0.32056528
178	0xc02573b2	-2.5851865
179	0xbfbdbb0c	-1.4822707
180	0x3df2867f	0.11842059
181	0x3f7f1704	0.99644494
182	0x407953cf	3.8957403
183	0x405933c0	3.3937836
184	0xc0761d7a	-3.845549
185	0x3d4ca153	0.04995854
186	0x3fdc0834	1.7190003
187	0xc0a5d2aa	-5.181966
188	0x3dfd3dfd	0.12365339
189	0xc079d812	-3.903813
190	0x40217563	2.5227897
191	0xc08a9bec	-4.3315334
192	0xbf1b74ae	-0.60724914
193	0x40a896e4	5.2684193
194	0xbf1fd46a	-0.62433493
195	0xbe4687ce	-0.19387743
196	0x4036452d	2.8479722
197	0xbf872429	-1.055791
198	0xbf873793	-1.0563835
199	0x405cfea2	3.4530416
200	0x404118aa	3.0171304
201	0xc047b8f9	-3.1206648
202	0x3f11e83a	0.56994975
203	0x3f938421	1.1524698
204	0xbf11af2c	-0.56907916
205	0xbfae127a	-1.3599389
206	0x3ff86ae4	1.940762
207	0x401124f6	2.267881
208	0xc0359ffa	-2.8378892
209	0x40418b4d	3.0241272
210	0x401ea289	2.4786704
211	0xbfc7981f	-1.5593299
212	0xbf20b4dd	-0.62775975
213	0x3f3334ed	0.70002633
214	0x3fceaa72	1.6145766
215	0xbebf8399	-0.3740509
216	0xbf58bd38	-0.84663725
217	0x400ada00	2.1695557
218	0xc04df836	-3.2182746
219	0x3d108d32	0.035290904
220	0x402f333e	2.7375026
221	0x4037d4ff	2.8723752
222	0xc0757216	-3.8350883
223	0xc09eb5fd	-4.9597154
224	0x400b642b	2.1779888
225	0xc02f5120	-2.7393265
226	0x3f6fef17	0.937242
227	0x3f9fdfc4	1.2490163
228	0xbfe3de42	-1.7802203
229	0x4019bcd0	2.4021492
230	0x3f4f4371	0.8096228
231	0x3fa69fd9	1.3017532
232	0x4032254f	2.7835271
233	0x3fde4009	1.7363292
234	0x3fb15c7f	1.3856353
235	0xbfbbdd52	-1.4676917
236	0x3ec379cd	0.38178864
237	0xbf95d170	-1.170454
238	0xc082ec28	-4.0913277
239	0xbebdd567	-0.37076876
240	0xc04757e9	-3.1147406
241	0x401e9ca3	2.4783103
242	0x3f79f595	0.97640353
243	0x3ea0cc05	0.31405655
244	0x3ed91d2c	0.4240507
245	0x3f835b37	1.0262212
246	0x40833316	4.099986
247	0xbfa6c448	-1.302865
248	0x3e3cf4b3	0.1845272
249	0x40ccb374	6.396906
250	0xc02b3e51	-2.6756785
251	0xbef47864	-0.477481
252	0xc0f6af4c	-7.7088985
253	0x3f846c6e	1.034559
254	0xbfafb8e8	-1.3728304
255	0x40168213	2.351689

sub_modules.0.fc2.bias f4 [40]
0	0x3fde949c	1.7389102
1	0xbf34e480	-0.70661163
2	0x3ee34dd9	0.4439533
3	0x3fe8b617	1.818057
4	0x3f93d143	1.1548237
5	0x3fb48359	1.4102584
6	0xbcb3a52e	-0.02192935
7	0xc092fe54	-4.593546
8	0xc036a7ca	-2.853991
9	0xc056f698	-3.358801
10	0xbfd87740	-1.6911392
11	0xc0978ac5	-4.7356896
12	0x4025049b	2.578406
13	0x3f1e75b5	0.61898357
14	0xbfe7efba	-1.8120034
15	0xbfa96f23	-1.3237041
16	0xc0283e6e	-2.6288104
17	0xc056f75c	-3.3588476
18	0xbea37836	-0.3192765
19	0xc07eae50	-3.9793892
20	0x3fbe79d5	1.488093
21	0xbf015eb8	-0.50535154
22	0x3f949411	1.1607686
23	0xbfed0f53	-1.8520302
24	0x3faa8b32	1.3323729
25	0xc0544d5d	-3.3172219
26	0x3f9bbe80	1.2167511
27	0xc083af9b	-4.115186
28	0xc0202c14	-2.5026903
29	0xbfe0a248	-1.7549524
30	0xbf6a5594	-0.9153683
31	0xbf0f54d8	-0.55988836
32	0xc01312bf	-2.2980192
33	0xc0135a74	-2.3023958
34	0x3faad006	1.3344734
35	0xbffa5866	-1.9558227
36	0x3e8a3509	0.26993588
37	0xc00ec5fa	-2.2308335
38	0x3fbf9225	1.4966475
39	0xbe8aa353	-0.27077731

sub_modules.0.fc2.weight f4 [40, 5, 5]
0	0x400fb8b6	2.2456489
1	0xbfa43043	-1.2827228
2	0xc070bc7a	-3.7615037
3	0x4000e9a7	2.014261
4	0xbf80c9f3	-1.006163
5	0x40df10e0	6.97081
6	0xc037cfce	-2.8720584
7	0xc0702782	-3.7524114
8	0xbff191a0	-1.8872566
9	0xbe9016ac	-0.28142297
10	0x4094335f	4.631271
11	0x3f249610	0.6429148
12	0xbd9e57e0	-0.077316046
13	0xc0559f23	-3.337838
14	0xc0097456	-2.1477256
15	0x3f0b764e	0.54477394
16	0x406817dd	3.6264565
17	0xc03ba46a	-2.93191
18	0xbf93247d	-1.149551
19	0x3ff219a1	1.8914071
20	0xc038c570	-2.8870506
21	0x3fd26fd2	1.6440375
22	0xbf695d9b	-0.91158456
23	0x4020faf4	2.515317
24	0x3e441bfa	0.19151297
25	0x3f403d62	0.7509366
26	0x3f798b75	0.9747842
27	0x403c6fae	2.9443164
28	0xc05c0675	-3.437894
29	0xbfc4e367	-1.5381898
30	0xc0865bcb	-4.198705
31	0xc05649ce	-3.3482547
32	0x3f854b46	1.0413597
33	0x406bc3d7	3.683828
34	0x40d37069	6.607472
35	0x3fdea822	1.739506
36	0xbfe76ea6	-1.8080642
37	0xbfaffeb2	-1.3749602
38	0xbf933ee2	-1.1503565
39	0xbff55361	-1.916607
40	0xbde9b791	-0.11411966
41	0xc00280da	-2.0391145
42	0x3fb626df	1.4230613
43	0xc021eb64	-2.529992
44	0xc063636e	-3.5529437
45	0x3eaaaf79	0.33337
46	0x401116df	2.267021
47	0xc07a213e	-3.908279
48	0xbf274f98	-0.65355825
49	0xbed91fbe	-0.4240703
50	0xc049f9f1	-3.1558802
51	0x3f4af06f	0.7927312
52	0xc097e9fc	-4.7473125
53	0x3ffb05fb	1.96112
54	0xc0308735	-2.7582524
55	0x402f6f39	2.7411635
56	0xbe877140	-0.2645359
57	0xc09216db	-4.56529
58	0x4021141c	2.5168524
59	0x3f041196	0.51589334
60	0x3f6503de	0.89459026
61	0xbe210c88	-0.15727437
62	0x3f9d3887	1.2282876
63	0xbef19947	-0.47187254
64	0x3f9bc5cc	1.2169738
65	0x4038cbac	2.8874311
66	0x3f2cef2c	0.6755245
67	0xbebbe40e	-0.3669743
68	0xc01d2220	-2.4552078
69	0x4006bf9a	2.1054444
70	0x3fad6e7e	1.3549345
71	0xbccaec0c	-0.024770759
72	0x3fc12c8a	1.5091717
73	0xbf24d463	-0.64386576
74	0xbe27cd7e	-0.16386983
75	0xc0176468	-2.3655033
76	0x403018c1	2.7515109
77	0xc030ccb8	-2.762495
78	0xbfd9eebe	-1.7025983
79	0xbf86c0a3	-1.0527538
80	0xc02a3bf2	-2.6599088
81	0x40704619	3.7542784
82	0x402b9b00	2.6813354
83	0xc016f8a9	-2.358927
84	0x3f4562f7	0.77104133
85	0xbf3211c9	-0.6955839
86	0x3f63d033	0.8898956
87	0x3f92731c	1.1441379
88	0xc0c1a0d1	-6.050881
89	0xbe82fd58	-0.2558391
90	0x3eb34d97	0.35020134
91	0xc0020239	-2.0313857
92	0xbea979ac	-0.3310064
93	0xbea5241e	-0.32254118
94	0x402934c5	2.6438458
95	0x4022385c	2.53469
96	0xc008aae3	-2.13543
97	0xbfbae686	-1.46016
98	0x3f6b65ef	0.91952413
99	0x3e9d38a0	0.30707264
100	0xbf4e20ac	-0.80518603
101	0xc0047ee1	-2.070244
102	0x408eb888	4.460026
103	0xbf2b330e	-0.6687478
104	0x4022aa3b	2.54164
105	0x408623df	4.191879
106	0xc00d57cc	-2.2084837
107	0x3e431c7e	0.19053838
108	0x409e6ec5	4.9510217
109	0x4091764d	4.545691
110	0x4003761c	2.0540838
111	0xbfd80675	-1.687697
112	0xbf73f01a	-0.9528824
113	0x4065227b	3.5802295
114	0xbfbd5ef0	-1.4794598
115	0xbf106c90	-0.56415653
116	0x3f8213c1	1.0162278
117	0xc0244fc8	-2.5673695
118	0x3df04f1b	0.11733838
119	0xc04296e0	-3.0404587
120	0xc0886bca	-4.263158
121	0x402c20cf	2.6895025
122	0xbf651ca8	-0.8949685
123	0xc060f5bd	-3.5149987
124	0xc036a004	-2.8535166
125	0xbf1ba14a	-0.6079298
126	0x40621785	3.5326855
127	0x402a5d25	2.661935
128	0xc03c4920	-2.9419632
129	0x3ef39ea8	0.47581983
130	0x3fd27447	1.6441735
131	0x4011d3ab	2.2785442
132	0x3e69967a	0.22811309
133	0xc0db8fef	-6.86132
134	0x3f8759a9	1.0574237
135	0xbf3b66fa	-0.73204005
136	0x40a5c12c	5.1798306
137	0xbf16c07b	-0.5888745
138	0xc06fcd95	-3.7469227
139	0x3fd0de9b	1.6317934
140	0x3f28fc4c	0.66009974
141	0x407290c6	3.7900863
142	0x3edbf29c	0.42958534
143	0x3ebfb237	0.37440655
144	0xc066e9c0	-3.608017
145	0xbd38b5c2	-0.045095213
146	0xc0163999	-2.3472655
147	0xbfaa791d	-1.3318211
148	0xc05abce0	-3.417778
149	0xbd946123	-0.0724509
150	0x3f7012ef	0.9377889
151	0x408d6331	4.4183583
152	0xbf682896	-0.9068693
153	0x40bdff6b	5.937429
154	0xbd84099e	-0.06447147
155	0xbfc4af82	-1.5366061
156	0x3d56e7b6	0.05246707
157	0xbfef618d	-1.8701645
158	0x4010ad74	2.2605867
159	0x406a7b7d	3.6637871
160	0x3fd70bc8	1.680047
161	0xc04d3273	-3.2062042
162	0xbf698445	-0.9121745
163	0xbfe2a5e7	-1.7706879
164	0xbedbbc0d	-0.4291691
165	0xbf457373	-0.77129287
166	0xc05129d7	-3.2681787
167	0x400a6690	2.16251
168	0xc0503a3d	-3.2535546
169	0xbd901327	-0.07034903
170	0xbfa85c93	-1.3153251
171	0x40253717	2.5814874
172	0x3f92d604	1.1471562
173	0x3ecef158	0.40418506
174	0xc0126a8c	-2.287753
175	0xc0b56ed5	-5.6697793
176	0x410846b7	8.517264
177	0xbfe1104d	-1.75831
178	0x401f2823	2.4868248
179	0x3fd29c4d	1.6453949
180	0xbedc4f97	-0.43029472
181	0xbfb717ec	-1.4304175
182	0xbf3876a0	-0.7205601
183	0x3ff680c7	1.925805
184	0x4023e374	2.5607576
185	0xbf0eaf4a	-0.5573622
186	0xc0486dfa	-3.1317124
187	0xc03a2e5a	-2.909079
188	0xc05af371	-3.4211085
189	0x3fc8739c	1.5660281
190	0x4032ba2a	2.7926126
191	0xbf9b31f2	-1.2124617
192	0x40221951	2.5327952
193	0xc0761d91	-3.8455546
194	0x3e2eeea5	0.17083223
195	0x407da720	3.9633255
196	0xbcbe75ff	-0.023249624
197	0x3fa03e0d	1.2518936
198	0xc047c2e1	-3.1212695
199	0xc0331b2e	-2.798534
200	0x408d76a9	4.420735
201	0xbde8f2c7	-0.11374431
202	0x3e2634e5	0.16231115
203	0x40238ca4	2.555459
204	0x3f7dcb5a	0.99138415
205	0xbf7cc400	-0.9873657
206	0x3f8cd881	1.1003572
207	0x3fe5c4d7	1.7950696
208	0xbfcb0d71	-1.5863477
209	0xbe8ca2be	-0.27467912
210	0xc00941db	-2.1446445
211	0x3f2ce75b	0.6754052
212	0xc0053cce	-2.0818362
213	0xc033ffb3	-2.8124816
214	0xbf8cdabc	-1.1004252
215	0xbfed6b3e	-1.8548353
216	0xbd96b6bb	-0.07359072
217	0xbf50275b	-0.8131005
218	0x3fee7f20	1.8632545
219	0xbfa17cbf	-1.2616194
220	0x3f8052aa	1.0025227
221	0xbe9d39df	-0.30708215
222	0x3f593a3d	0.8485449
223	0xbe89402f	-0.2680678
224	0x3f8e368f	1.11104
225	0xc081a2ed	-4.0511384
226	0x3fdfdfc4	1.7490163
227	0x4042fe1d	3.0467598
228	0x3f53a567	0.8267426
229	0x3ffb7fd2	1.9648383
230	0x4022626d	2.5372574
231	0x3ea0dd13	0.31418666
232	0xc03ca52e	-2.9475818
233	0x3f7b1030	0.98071575
234	0xbfee08e8	-1.8596468
235	0x402ab537	2.6673105
236	0x3f1cdc0f	0.6127328
237	0xbf774615	-0.9659131
238	0x3f32c94c	0.69838405
239	0xc082da2e	-4.0891333
240	0x3f672476	0.9029001
241	0xbf35e92d	-0.71058923
242	0xbed39516	-0.4132468
243	0x3fa65062	1.2993281
244	0x4008abcd	2.135486
245	0xbf988916	-1.1916835
246	0xc0a970d3	-5.2950225
247	0x3fc58881	1.5432283
248	0x3e1d51b0	0.15363193
249	0x400a0805	2.1567395
250	0x3fe13098	1.7592955
251	0x3e461b53	0.19346361
252	0xbf0bf1e6	-0.5466598
253	0xbf50cedd	-0.8156565
254	0x3fe45035	1.7836977
255	0xbf2f8cb3	-0.68574065

sub_modules.0.fc3.bias f4 [40]
0	0x3e2cb52a	0.16865984
1	0x3f737a57	0.9510855
2	0x3f77c9b8	0.96792173
3	0xc05ce679	-3.451567
4	0x3f1f8118	0.62306356
5	0x4047c7e1	3.1215746
6	0xbfd37045	-1.6518637
7	0xc0779ee3	-3.8690727
8	0xc05fb35a	-3.4953218
9	0xc063d24d	-3.5597107
10	0xbf8809e7	-1.0628022
11	0xc03366f8	-2.8031597
12	0xc05c2715	-3.4398854
13	0x3fcc5830	1.5964413
14	0x3fb1715a	1.3862717
15	0xc0791719	-3.8920348
16	0xc06801cb	-3.6251094
17	0x3faeee2b	1.3666433
18	0xc0803104	-4.0059834
19	0xc00afb6d	-2.1715958
20	0x3f0e9ed5	0.5571111
21	0xc0826bf8	-4.07568
22	0xc030a52a	-2.7600808
23	0x3fd58c75	1.6683489
24	0xbf18daa3	-0.59708613
25	0xc0087d2a	-2.1326394
26	0x400a18c6	2.157762
27	0xbfb0c752	-1.3810828
28	0xc0537b24	-3.304391
29	0x3f9891cb	1.1919492
30	0x400cafaa	2.1982217
31	0x3f8d93d2	1.1060736
32	0x40042537	2.0647714
33	0xc04823fe	-3.1271968
34	0xbfd00163	-1.6250423
35	0x3f69b404	0.9129031
36	0xc00f6e51	-2.2411082
37	0x3f640dc5	0.8908351
38	0xbef3f83b	-0.47650322
39	0xbf1d85ed	-0.6153248

sub_modules.0.fc3.weight f4 [40, 1, 3]
0	0x3f5953c7	0.8489346
1	0x3ee2be6c	0.44285905
2	0xbf3dbf28	-0.74119806
3	0x40cca89f	6.3955836
4	0x3f04b737	0.51842064
5	0xc0d3c9a3	-6.618364
6	0x40085479	2.1301558
7	0xbfe6fc79	-1.8045799
8	0x3fb41cfd	1.4071347
9	0x3fe04665	1.7521483
10	0xc0a3e35e	-5.121505
11	0xc0d97429	-6.7954297
12	0xc01d76f6	-2.4603858
13	0xbec89f84	-0.391842
14	0x407c8356	3.945516
15	0x4068acaf	3.6355398
16	0x4086014f	4.1876597
17	0xc0ae7bb4	-5.4526005
18	0x3e03204f	0.12805294
19	0xbfd40e92	-1.6566947
20	0x400fb107	2.24518
21	0xbfa5cb06	-1.2952583
22	0xc0b24b2e	-5.571677
23	0xc0313da1	-2.7693865
24	0x4062395b	3.5347507
25	0xbe7bbdf6	-0.24584183
26	0xc05ec371	-3.4806788
27	0xbfeb7af3	-1.8396896
28	0xbf680104	-0.9062655
29	0xbef42257	-0.4768245
30	0xbf96cfc6	-1.1782157
31	0xbeab5d17	-0.3346946
32	0xc01be463	-2.4358146
33	0xc01df8f2	-2.4683194
34	0x408a4b86	4.321719
35	0xc032cdf6	-2.7938209
36	0xc03500b6	-2.8281684
37	0xbf74f977	-0.95693153
38	0x3fbc3188	1.4702616
39	0x3f7bb842	0.9832803
40	0x40241303	2.5636604
41	0x409dfa54	4.9368076
42	0x4001b888	2.026888
43	0xc02449ab	-2.5669963
44	0xc0816fc7	-4.0448947
45	0xbfe7f873	-1.8122696
46	0x3fd83d94	1.6893792
47	0x3faa6dc6	1.331475
48	0xc016ab2b	-2.3541973
49	0x401ff8ed	2.4995682
50	0xc018af8f	-2.3857152
51	0x3e7698e5	0.24081762
52	0x407356b3	3.8021667
53	0xc003df9c	-2.060523
54	0xbfbe1533	-1.485022
55	0xbe040049	-0.12890734
56	0x4045d191	3.090916
57	0xbff11568	-1.8834658
58	0x3f960de3	1.1722988
59	0x3f055096	0.5207609
60	0x3f563ad6	0.83683527
61	0x3c45237f	0.012032389
62	0x405895d8	3.3841457
63	0x40913684	4.5379047
64	0x3f12dcd6	0.5736822
65	0xc04ed021	-3.2314532
66	0x409bc8b4	4.86825
67	0xbe908ab8	-0.28230834
68	0xc046472b	-3.0980937
69	0xbfd3002f	-1.6484431
70	0xc00d97b7	-2.212385
71	0x4047d26e	3.1222186
72	0xbfb506b8	-1.4142675
73	0xbc477f14	-0.012176294
74	0xbe5a50b8	-0.21319854
75	0xbfd981c9	-1.6992732
76	0x40556ded	3.3348343
77	0xbfd4fd50	-1.6639805
78	0xbfba6a6b	-1.4563726
79	0xbfcf8cec	-1.6214881
80	0x4093a6e5	4.614123
81	0xbe955866	-0.29169005
82	0xbf97a18a	-1.1846173
83	0x3f059ea8	0.52195215
84	0x3f65c590	0.8975458
85	0x3f92e905	1.1477362
86	0x3f8323b6	1.0245273
87	0xbef19d7c	-0.47190464
88	0x3d72cb85	0.059276123
89	0xc0bb9517	-5.8619494
90	0xbf1381f5	-0.57620174
91	0x3f2311db	0.6369912
92	0x3e6d8270	0.23194289
93	0x3fa6d74c	1.3034453
94	0xc081cfd6	-4.0566206
95	0xbfbab9e4	-1.4587979
96	0xbf5827c6	-0.8443569
97	0x404347ae	3.05125
98	0xbf9bc702	-1.2170107
99	0xbf4828cc	-0.7818725
100	0xbf8a34ac	-1.0797324
101	0xbd9e61b4	-0.07733479
102	0xbf6f8c5f	-0.93573564
103	0xbffaec3c	-1.9603343
104	0x3e030515	0.12794907
105	0xc039ee17	-2.9051569
106	0xc0c11f40	-6.0350647
107	0x3f072432	0.52789605
108	0x3f3d2762	0.7388822
109	0xbf86465e	-1.0490224
110	0x3fbe543f	1.486946
111	0xbff41fc8	-1.9072199
112	0xc0a335b0	-5.1003036
113	0x3f98bb2c	1.193212
114	0x3faa607e	1.3310697
115	0x3f7429f6	0.9537653
116	0xbe30f74b	-0.17281835
117	0x40f30f7b	7.5956397
118	0xc096d43c	-4.7134075
119	0xc0045bde	-2.0681071

sub_modules.0.fc4.bias f4 [40]
0	0xbf91962c	-1.1373954
1	0xbfca10f5	-1.5786425
2	0xc02486d5	-2.5707295
3	0xc050178a	-3.2514367
4	0x3ec43c56	0.38327283
5	0xbff5bc2e	-1.9198053
6	0xbfc4d0db	-1.5376238
7	0xc01d9869	-2.4624274
8	0x4005228a	2.080233
9	0x3f81a959	1.0129806
10	0xbf085ade	-0.5326365
11	0xc019ae91	-2.4012797
12	0xbf87ce97	-1.0609921
13	0xbf861558	-1.0475264
14	0xc0887446	-4.2641935
15	0xc03d21ce	-2.9551883
16	0xbe7c5ab2	-0.24643973
17	0xbf35113d	-0.7072943
18	0x3f5ab0c8	0.85425997
19	0xbfc8dc9a	-1.5692322
20	0x3ea2b6c5	0.31780067
21	0xc052fffb	-3.2968738
22	0xc0556d70	-3.3348045
23	0xc057987a	-3.3686814
24	0xbf1cf4f0	-0.61311245
25	0x3e436548	0.19081604
26	0x3c0c4db9	0.008563452
27	0x40084b43	2.1295936
28	0xc007e03c	-2.1230612
29	0xbe6cc52e	-0.23122093
30	0xc051db21	-3.2789996
31	0x3f5d5d64	0.8647063
32	0x3f5627bd	0.83654386
33	0x3fbbf7df	1.4685019
34	0xc0023c5c	-2.034934
35	0xbfbc56b2	-1.4713957
36	0x3fe60a66	1.7971923
37	0x3eef3524	0.4672023
38	0x3f6b979f	0.9202823
39	0xbfe1326c	-1.7593513

sub_modules.0.fc4.weight f4 [40, 1, 5]
0	0x3fe89e7a	1.8173363
1	0x3f055235	0.5207856
2	0xc01ec203	-2.4805915
3	0x3fbee06e	1.491224
4	0x3f32f592	0.6990596
5	0xbfdf3be1	-1.7440149
6	0x4012bcc1	2.2927706
7	0x3d6b2af2	0.057414003
8	0xbff5a2ca	-1.9190304
9	0x4017d533	2.3723876
10	0xbe92123d	-0.2852954
11	0x403de2bc	2.9669638
12	0xc0368bdf	-2.852287
13	0xc029b021	-2.651375
14	0x407ebf6e	3.980434
15	0x4062eb4a	3.545611
16	0x402721e8	2.6114445
17	0xc01ba5ba	-2.4319901
18	0xc087bbc9	-4.241673
19	0xc033fd95	-2.8123524
20	0x3f53b769	0.82701737
21	0x3faa8a86	1.3323524
22	0x4042198e	3.0328097
23	0x3f8dc3f9	1.1075431
24	0xc0605efe	-3.5057979
25	0x3fe92e1e	1.8217199
26	0x407f10df	3.9854047
27	0x3fa3c214	1.2793603
28	0xc085e4e2	-4.18419
29	0xc08fb578	-4.490902
30	0x3f675f0b	0.903794
31	0x3f4bffba	0.7968708
32	0xbf8e9d39	-1.114173
33	0x3fb197cd	1.3874451
34	0xbe9304bf	-0.28714558
35	0x3d83ed94	0.06441799
36	0x3e60ef47	0.21966277
37	0xc0663c90	-3.5974464
38	0x3f2c384a	0.6727339
39	0x401803a0	2.3752213
40	0x40aa8a6e	5.329398
41	0x3f42237a	0.7583538
42	0xc030d6c4	-2.7631083
43	0x3edad2df	0.42739007
44	0xc011f246	-2.2804122
45	0x3fb90fd8	1.445796
46	0xc0419931	-3.024975
47	0xbd5c2f4b	-0.05375604
48	0xbf6ebfc4	-0.9326136
49	0xbfcb3712	-1.5876181
50	0x3ea59e7a	0.3234747
51	0x40a9e1e0	5.3088226
52	0xbff9b38b	-1.9507917
53	0xc0b4a2de	-5.6448812
54	0x3fa3bac8	1.2791376
55	0x3eedc0a9	0.4643605
56	0x40495989	3.1460898
57	0x404f31b8	3.2374096
58	0xc057a82b	-3.3696392
59	0xc02a4b9a	-2.6608644
60	0x40937012	4.6074305
61	0x3fdcad81	1.7240449
62	0xc009d699	-2.153723
63	0xc00e2ae7	-2.2213686
64	0xc03a0e6e	-2.9071307
65	0xbffa3834	-1.9548402
66	0xc092f1d5	-4.5920205
67	0x3ff2c133	1.896521
68	0x40cdf4b7	6.4361224
69	0xbe3ea03c	-0.18615812
70	0xbfe3a479	-1.7784568
71	0xc019349b	-2.3938358
72	0x3d0ad2f5	0.03389259
73	0x3fc2b039	1.5210029
74	0x406082f2	3.5079923
75	0xc083a4f7	-4.1138873
76	0xbfba4b98	-1.4554319
77	0x3e890531	0.26761773
78	0x3e6ace12	0.22930172
79	0x4044eb9f	3.0768812
80	0xbfa90635	-1.3205019
81	0x3f18d662	0.5970212
82	0xc07858a2	-3.8804097
83	0xbeb9846f	-0.3623385
84	0x40928ea2	4.579911
85	0xbfe58d23	-1.7933697
86	0x40705aa7	3.755533
87	0x4034af37	2.8231943
88	0xc080e695	-4.028147
89	0x3f96f19d	1.1792485
90	0x4064a245	3.5724041
91	0xc00fee23	-2.2489097
92	0xbff841e0	-1.9395103
93	0x40274de6	2.6141295
94	0xc007d22b	-2.1222026
95	0x3f70f115	0.9411786
96	0x3f69d0f7	0.9133448
97	0x3fdc4865	1.7209593
98	0xc0048b1b	-2.0709903
99	0xbfb53f61	-1.4159967
100	0x3ec4f6ab	0.38469443
101	0xbfe37e83	-1.7772983
102	0xbf9b115c	-1.2114673
103	0x40900e81	4.5017705
104	0x3ec40bc8	0.38290238
105	0x4031ec5f	2.780052
106	0xc02b428c	-2.6759367
107	0xc088a9df	-4.270736
108	0xbfe03dc5	-1.751885
109	0x3fc9ae0d	1.5756241
110	0x3ff8460b	1.9396375
111	0xbe9345bc	-0.2876414
112	0xbf16a614	-0.58847165
113	0x3d504551	0.050847355
114	0xbf92a41d	-1.1456333
115	0x3efc9964	0.49335778
116	0x405b09f8	3.4224834
117	0xbdfefda0	-0.12450719
118	0xc0135701	-2.3021853
119	0xc02cc77d	-2.6996758
120	0xc0201e92	-2.5018659
121	0x3e742f3d	0.23846145
122	0x3ea204a7	0.31644174
123	0xbcbf6743	-0.023364669
124	0x402a240d	2.6584504
125	0xc03f238c	-2.9865446
126	0x3deda487	0.11603647
127	0x4093e339	4.621487
128	0xc03662eb	-2.8497875
129	0xbe5cbeb1	-0.21557118
130	0xbfbb8f39	-1.4653083
131	0x3de75778	0.1129598
132	0xbfb5d671	-1.4206067
133	0x4015edec	2.3426466
134	0x3f1dba0c	0.6161201
135	0x3fa23833	1.2673401
136	0x3ed5176a	0.41619426
137	0xbed0a1dc	-0.4074849
138	0xc013f329	-2.3117163
139	0x3fba60ce	1.4560792
140	0x4010e9c0	2.264267
141	0x3f5fe3d4	0.87457013
142	0xbefa7521	-0.48917487
143	0x3dac2767	0.08405953
144	0xbfb702fa	-1.4297783
145	0x3fee04cc	1.8595214
146	0x3f4d0ef5	0.8010095
147	0xc00c597a	-2.1929612
148	0xc0824b01	-4.0716558
149	0x3ead471c	0.33843315
150	0xc013c623	-2.3089683
151	0xbe4868f6	-0.1957129
152	0xbff84989	-1.9397441
153	0xbf4e8fe3	-0.80688304
154	0x408ffa2b	4.499288
155	0x40457db7	3.085798
156	0xc0005d83	-2.0057075
157	0xc088a444	-4.270052
158	0xbf3653d2	-0.7122165
159	0xbfa45de9	-1.2841159
160	0x3fac5807	1.3464364
161	0x3eea451a	0.45755845
162	0x40d9fa40	6.811798
163	0xbf0dd450	-0.5540209
164	0xc0d98481	-6.797425
165	0xbf927727	-1.1442612
166	0xbf94f18d	-1.1636215
167	0xc086a209	-4.2072797
168	0x3fcf1f92	1.618151
169	0xbf10c48d	-0.5654991
170	0x3f8e8a76	1.1136005
171	0xc03eeebe	-2.9833217
172	0x3f2ad6f7	0.6673426
173	0x4087aa02	4.239503
174	0xc05833bc	-3.3781576
175	0x3e0558e9	0.13022198
176	0x408a4932	4.321435
177	0x3fa27323	1.2691387
178	0xc11bdec4	-9.741886
179	0xbfcf0bc5	-1.6175467
180	0x3f2ee308	0.6831517
181	0x3f56ec0f	0.83953947
182	0xbd99780b	-0.074935995
183	0x4051c76f	3.2777975
184	0xbe8500b6	-0.25977105
185	0x3e84c1a7	0.25928995
186	0x3ed6bf5c	0.4194287
187	0xbee77b47	-0.4521124
188	0xc06b2656	-3.6742148
189	0xbecc8007	-0.39941427
190	0x3ffb46c6	1.9630973
191	0xbf96c59b	-1.1779054
192	0xc00249d6	-2.0357566
193	0x4017aebb	2.3700397
194	0xbf16e4cb	-0.5894286
195	0x408ece17	4.4626575
196	0xc0265040	-2.598648
197	0xc022256c	-2.533534
198	0x40037086	2.053743
199	0x4035be0f	2.8397253

sub_modules.1.sub_modules.0.stages.stage0.bn1.bias f4 [12]
0	0x3e593fdd	0.21215768
1	0x4012a638	2.2913952
2	0x401e201d	2.47071
3	0xc013a64d	-2.3070252
4	0x3cd904ce	0.026491549
5	0x40224307	2.535341
6	0x3fb58a84	1.4182897
7	0x401c0ddf	2.4383466
8	0xbfcdbed4	-1.6073861
9	0x3f846977	1.0344685
10	0x401d4199	2.4571288
11	0xbf895912	-1.0730307

sub_modules.1.sub_modules.0.stages.stage0.bn1.running_mean f4 [12]
0	0x41d3ca8f	26.473906
1	0x41db5753	27.417639
2	0x418f7084	17.92994
3	0x4204b0ca	33.172646
4	0xbdbf879c	-0.09352037
5	0x42070834	33.75801
6	0xc216d10f	-37.70416
7	0xc16cf81b	-14.810573
8	0x4208a9c7	34.1658
9	0x41d7d241	26.977663
10	0xc180c8e1	-16.098085
11	0x41b550c6	22.66444

sub_modules.1.sub_modules.0.stages.stage0.bn1.running_var f4 [12]
0	0x449b4433	1242.1312
1	0x444f5886	829.3832
2	0x4408bd73	546.96014
3	0x44628bd6	906.18494
4	0x40569d64	3.3533564
5	0x44959c72	1196.8889
6	0x44c1f017	1551.5028
7	0x445de081	887.5079
8	0x449630e7	1201.5282
9	0x44cc2390	1633.1113
10	0x44977491	1211.6427
11	0x43fecfc8	509.6233

sub_modules.1.sub_modules.0.stages.stage0.bn1.weight f4 [12]
0	0x422ffa67	43.994534
1	0x403efeb3	2.9842956
2	0x40273911	2.612858
3	0x4059a36a	3.400599
4	0x3faa6f6b	1.3315252
5	0x402aad05	2.6668103
6	0x409c8f9b	4.89253
7	0x405663a5	3.3498318
8	0x4086615e	4.1993856
9	0x4164e74e	14.306471
10	0x404e7f32	3.2265134
11	0x409c32d7	4.881206

sub_modules.1.sub_modules.0.stages.stage0.bn2.bias f4 [12]
0	0x3f4aa588	0.7915883
1	0x400f1194	2.235448
2	0xbf6938ff	-0.91102594
3	0x3ea9b8ae	0.33148712
4	0xbf307d9b	-0.6894166
5	0x3f843efa	1.0331719
6	0x3f826ffa	1.0190423
7	0x3ef51ddb	0.4787434
8	0x3f2a030c	0.664109
9	0x3e9409c1	0.28913692
10	0xbe2d351c	-0.16914791
11	0x3f8d7f50	1.1054478

sub_modules.1.sub_modules.0.stages.stage0.bn2.running_mean f4 [12]
0	0xc3bf7fd6	-382.99872
1	0x4134fb42	11.311342
2	0x42100ea7	36.01431
3	0xc0636c34	-3.5534792
4	0xbfdee05e	-1.7412221
5	0x3feec0b4	1.8652558
6	0xc27cab10	-63.167053
7	0x3fb89a56	1.44221
8	0x4010a92b	2.2603252
9	0x4205b3a1	33.42542
10	0x419a4533	19.283789
11	0x40f8e37c	7.777769

sub_modules.1.sub_modules.0.stages.stage0.bn2.running_var f4 [12]
0	0x480ff438	147408.88
1	0x44049ff3	530.4992
2	0x448553ef	1066.6229
3	0x43b1367a	354.4256
4	0x404288dc	3.0396032
5	0x43c8dcb5	401.72427
6	0x447f8e3b	1022.22235
7	0x4365caf7	229.79283
8	0x43eaf3b4	469.90393
9	0x45f5b6a3	7862.8296
10	0x43ff4dc3	510.6075
11	0x44484b57	801.1772

sub_modules.1.sub_modules.0.stages.stage0.bn2.weight f4 [12]
0	0x40211b31	2.5172846
1	0x409fb87a	4.991269
2	0x40325115	2.7861989
3	0x40301d1f	2.7517774
4	0x3e69ff58	0.22851312
5	0x40474553	3.1136062
6	0x4013c6f3	2.309018
7	0x405df887	3.468294
8	0x4044959e	3.071632
9	0x407c31f4	3.940549
10	0x40437c90	3.0544777
11	0x4078f8cf	3.890186

sub_modules.1.sub_modules.0.stages.stage0.bn3.bias f4 [24]
0	0xbed95828	-0.4245007
1	0x3e37436c	0.17896813
2	0x3e8e531c	0.27797782
3	0x3f73a496	0.95173013
4	0x3bd2abea	0.006429185
5	0x3fe91eb1	1.8212491
6	0x3ee3cb03	0.44490823
7	0x3f6fe3f6	0.93707216
8	0xbd825230	-0.06363332
9	0xbf069b89	-0.5258108
10	0x3f4ae8c3	0.79261416
11	0x3e428a7c	0.1899814
12	0x3f944d77	1.158614
13	0x402ece16	2.7313285
14	0xbf727610	-0.947114
15	0xbfa64b14	-1.2991662
16	0xbe78b64c	-0.2428829
17	0x3f0fbc5b	0.5614678
18	0x3ed4c192	0.41553932
19	0xbeab9004	-0.33508313
20	0xbfd37fef	-1.6523417
21	0x3b6adeb2	0.0035838303
22	0x4030c8a8	2.762247
23	0xbf0f7b13	-0.5604717

sub_modules.1.sub_modules.0.stages.stage0.bn3.running_mean f4 [24]
0	0x409e3e27	4.945087
1	0xc1b36520	-22.424377
2	0xc1b859ca	-23.043842
3	0x40ab161e	5.34645
4	0xc1071223	-8.441928
5	0x40aeb04b	5.45902
6	0xc0f675c4	-7.7018757
7	0xc1a6aa8d	-20.833277
8	0xc06d2827	-3.7055757
9	0x4194c7c7	18.597548
10	0xc0ceb7c1	-6.459931
11	0x41158ee3	9.347384
12	0xc198185a	-19.01189
13	0x40cfd9da	6.495343
14	0x418c44a4	17.533516
15	0x417ca802	15.791018
16	0x40c9f370	6.3109665
17	0xc152e6ae	-13.181318
18	0x40070c4e	2.110126
19	0x413f4e6d	11.956647
20	0x413a0b14	11.627705
21	0xc1a996ae	-21.198574
22	0xc1a0e4a5	-20.111643
23	0x40de8c63	6.954637

sub_modules.1.sub_modules.0.stages.stage0.bn3.running_var f4 [24]
0	0x43cb1dde	406.23334
1	0x440197d3	518.37225
2	0x4402da4a	523.41077
3	0x43b358b6	358.69305
4	0x4403d654	527.3489
5	0x44133dcc	588.9656
6	0x43b20c2d	356.09512
7	0x4402d8e7	523.3891
8	0x43712d7b	241.17766
9	0x4405ac2e	534.6903
10	0x43903617	288.42258
11	0x43b4d5d1	361.67044
12	0x43c4865e	393.04974
13	0x43e6ea02	461.8282
14	0x43ece82d	473.81387
15	0x43a1f197	323.88742
16	0x43c9f8eb	403.94467
17	0x4403ab94	526.6809
18	0x43f439ec	488.4525
19	0x43eef4d9	477.91287
20	0x43ad81cc	347.01404
21	0x43df7b23	446.962
22	0x43b89891	369.19193
23	0x44171bd0	604.4346

sub_modules.1.sub_modules.0.stages.stage0.bn3.weight f4 [24]
0	0x40748040	3.8203278
1	0x404600df	3.0938032
2	0x40237e25	2.5545743
3	0x406cf4f9	3.702452
4	0x40005a6f	2.0055196
5	0x4091435b	4.539472
6	0x3ffb3aca	1.9627316
7	0x401b71f0	2.4288292
8	0x408cdaa2	4.4016886
9	0x40364466	2.8479247
10	0x403ef6b1	2.9838068
11	0x40566949	3.350176
12	0x40103c23	2.2536705
13	0x3fa81f85	1.3134619
14	0x40092d48	2.1433887
15	0x40158338	2.336134
16	0x40493d34	3.1443605
17	0x40217bcf	2.5231817
18	0x40807727	4.014545
19	0x400da43d	2.2131493
20	0x403bc85d	2.9341042
21	0x3ffee848	1.9914637
22	0x402f5ea5	2.7401516
23	0x405b1267	3.4229982

sub_modules.1.sub_modules.0.stages.stage0.conv1.weight f4 [12, 12, 1, 1]
0	0xbf8faf87	-1.1225442
1	0x3f9362fd	1.1514584
2	0x40c92db1	6.2868276
3	0xbf760084	-0.96094537
4	0xbf4c141d	-0.7971819
5	0xbf8cfea3	-1.1015209
6	0x40c9f4a3	6.311113
7	0x4026d381	2.6066592
8	0x40c8bc46	6.2729826
9	0xbf552b56	-0.8326925
10	0x3f2ec936	0.68275774
11	0x41232188	10.195686
12	0x3fae0cec	1.3597693
13	0xbf9fec73	-1.2494034
14	0x3fa37401	1.2769777
15	0x40e08fb3	7.0175414
16	0x405f88ac	3.4927168
17	0x4066023c	3.5938864
18	0xc0057c50	-2.0857124
19	0x406ba3ae	3.6818652
20	0x3efe6bd9	0.49691656
21	0x400028d4	2.002492
22	0x403f7da1	2.9920428
23	0x3f376987	0.71645397
24	0x3fc45051	1.5337011
25	0x3fcea158	1.6142988
26	0xbf35a0f7	-0.7094874
27	0xbfc3fccf	-1.5311526
28	0xbfc397c6	-1.5280693
29	0x3ddc863e	0.10767792
30	0x3fc83075	1.5639788
31	0x411c3c35	9.764699
32	0xbf5d5582	-0.864586
33	0x3fc7ca97	1.56087
34	0x40737c7e	3.8044734
35	0xc020e291	-2.5138285
36	0x408c60b6	4.3868055
37	0x402f49d5	2.7388813
38	0x3fcb45a0	1.5880623
39	0x3f5e31e3	0.8679487
40	0x4103abdb	8.229457
41	0x40bc5437	5.88528
42	0x3fee8f45	1.8637472
43	0x3ff943ac	1.9473777
44	0x3f4aa8cd	0.7916382
45	0x4080daf7	4.026729
46	0x3fa09605	1.2545782
47	0x3fc8e4eb	1.569486
48	0xbec1d2e1	-0.378562
49	0x3d059663	0.032614123
50	0x3eb3c697	0.3511245
51	0xbe333496	-0.17500529
52	0x3e321b66	0.17393264
53	0x3d82aefa	0.063810304
54	0x3dd8c5fd	0.10584638
55	0xbe6507bb	-0.2236623
56	0xbce1b691	-0.027552875
57	0x3dbd567a	0.0924501
58	0xbe5d9e6d	-0.21642466
59	0x3eb5853e	0.35453218
60	0x3fe3ca48	1.7796106
61	0x3f31d18b	0.6946036
62	0x3f6af18b	0.91774815
63	0x40971a7c	4.721983
64	0x3fe4cc32	1.7874815
65	0x40580aab	3.3756511
66	0xbefb24a4	-0.49051392
67	0x4099ff01	4.8123784
68	0xbe27b5e7	-0.16377984
69	0x40a87e86	5.2654448
70	0x40b6e16f	5.7150187
71	0x3f509026	0.81469953
72	0xc1282a8f	-10.51039
73	0xbfa3ca0e	-1.2796037
74	0x3ea5e454	0.32400763
75	0xc111b3d7	-9.106406
76	0x3fd9275b	1.6965135
77	0xc0764f61	-3.848595
78	0xc00556f4	-2.0834322
79	0xbf4b7c32	-0.7948638
80	0xbfedf4b1	-1.8590299
81	0xc098bf74	-4.7733707
82	0xc037d0a0	-2.8721085
83	0xbddf98da	-0.10917826
84	0xc003097e	-2.0474544
85	0xbfeb7ab7	-1.8396825
86	0x4096d85e	4.713912
87	0xbe0f1ee8	-0.13976634
88	0x3f4bf230	0.79666424
89	0x3ecc60f1	0.3991771
90	0xbf4221bb	-0.7583272
91	0xc0d81788	-6.7528725
92	0x3ea791b3	0.32728347
93	0xc08d8c22	-4.423356
94	0xc08082fc	-4.0159893
95	0x3fc6e330	1.5538082
96	0x40465b2a	3.0993142
97	0x3f3ac353	0.7295429
98	0x3f9a0e25	1.2035567
99	0x409c1dc0	4.8786316
100	0x410b5b76	8.709829
101	0x40eb6018	7.35548
102	0x3ece6cc5	0.4031736
103	0x3fc71305	1.5552679
104	0x3f6b5867	0.91931766
105	0x40399833	2.8999145
106	0x3fe1d5c3	1.764336
107	0x3fb99ca2	1.4500926
108	0xbf971ad1	-1.1805059
109	0x403cde10	2.9510536
110	0x40dfc57d	6.9928575
111	0xbf9faddf	-1.2474936
112	0xbf260d08	-0.64863634
113	0xbf9a08da	-1.2033951
114	0x40559820	3.33741
115	0x3f7f3044	0.9968302
116	0x3f9852b0	1.1900234
117	0xbebbd8c6	-0.36688823
118	0xbd9e5b39	-0.07732243
119	0x4198fbb2	19.122898
120	0x3e6f4bda	0.23368779
121	0xbf009a46	-0.502354
122	0xc0bb8181	-5.8595586
123	0xbecba260	-0.3977232
124	0x3f1d2eab	0.61399335
125	0xc0058c7f	-2.0867002
126	0x3e460240	0.19336796
127	0x40200d3f	2.5008085
128	0xc0da2d7a	-6.8180513
129	0x400a1faa	2.1581826
130	0x4021547a	2.520781
131	0xc123e0d2	-10.242388
132	0x3f86951c	1.0514255
133	0x3f5843cf	0.8447847
134	0x3ec4199e	0.38300794
135	0x4112843d	9.157285
136	0x40b4b199	5.6466794
137	0xbfb12a23	-1.3840984
138	0x3e82a3b7	0.2551553
139	0x4000cf0f	2.0126379
140	0x3ef2222b	0.47291693
141	0x40091e93	2.142491
142	0x40419251	3.0245554
143	0x3f7de26c	0.9917362

sub_modules.1.sub_modules.0.stages.stage0.conv2.weight f4 [12, 1, 5, 5]
0	0xbf5f8459	-0.8731132
1	0xbff9e34d	-1.9522492
2	0xbfcd81e1	-1.6055261
3	0xc00a494c	-2.1607237
4	0x402d2252	2.7052197
5	0x3fce3ec0	1.61129
6	0x3f8a5ab0	1.0808926
7	0x404ea0f5	3.228574
8	0xbffbf0ea	-1.9682896
9	0xc0b37a74	-5.608698
10	0xbf963e91	-1.1737844
11	0xc07fe320	-3.9982376
12	0x3f7c2089	0.98487145
13	0xc0497f1d	-3.1483834
14	0xbfdeda4a	-1.7410367
15	0x3f49193d	0.78554136
16	0xbf2ebd3d	-0.68257505
17	0xbfed3bab	-1.8533834
18	0xc061d38a	-3.5285363
19	0xbf7bfda8	-0.98433924
20	0xbff84881	-1.9397126
21	0xbfe61532	-1.7975218
22	0xc0509b20	-3.259468
23	0x404c3cb5	3.1912053
24	0x3db35075	0.0875558
25	0x3ffb262f	1.9621028
26	0x3f7fe34c	0.999562
27	0x3f1a0797	0.6016783
28	0x3f2afe58	0.6679435
29	0xc038ed49	-2.8894827
30	0xbf8419e3	-1.03204
31	0xbefe0735	-0.49614874
32	0xc0683cee	-3.6287189
33	0x3f76f318	0.9646468
34	0x40bf5b7b	5.979917
35	0x3f8ea62b	1.114446
36	0xbf4fec74	-0.81220174
37	0x406a9443	3.6652992
38	0x4024a721	2.5727007
39	0xc094f541	-4.654938
40	0xbf9e6d5b	-1.2377123
41	0x3f5aab47	0.854176
42	0xc000be0a	-2.011599
43	0xbfe6301b	-1.7983431
44	0x40380cfc	2.8757925
45	0xc00dd338	-2.2160168
46	0x3ffd0775	1.9767901
47	0x3fc6bda2	1.5526621
48	0x3ddeac7b	0.10872742
49	0x3dd70437	0.10498851
50	0x3fdbc6b7	1.7170018
51	0x4064cace	3.5748782
52	0x3f93087f	1.1486968
53	0x3f565c3e	0.837345
54	0x4008bec0	2.1366425
55	0xc03d1349	-2.954302
56	0x3f0561c8	0.5210233
57	0x406a721d	3.663215
58	0xbfcc6178	-1.5967245
59	0xbed4a36a	-0.41530925
60	0x404b2658	3.1742153
61	0x3e4f7ccf	0.20262454
62	0xbf257ae9	-0.6464067
63	0x401ba4b7	2.4319284
64	0x4077904c	3.8681822
65	0xc0948cfd	-4.6422105
66	0xc02c2e65	-2.6903317
67	0x3f6167db	0.88049096
68	0x3efb86f4	0.491264
69	0x3fe25528	1.7682238
70	0x40082f6e	2.1278949
71	0x3e98143f	0.29702947
72	0xc0acc518	-5.3990593
73	0x4019e9c6	2.4048934
74	0x3ecdb8be	0.4018001
75	0xbfa24595	-1.2677485
76	0x3f85bc66	1.044812
77	0xbe99c079	-0.30029657
78	0x3fb962ec	1.4483314
79	0x40537231	3.3038447
80	0x3f95b740	1.1696548
81	0xbfaf5707	-1.3698434
82	0xbf87effa	-1.062011
83	0x4043dfa2	3.0605245
84	0x4086da5d	4.2141557
85	0x40135e4e	2.302631
86	0x3feef752	1.8669226
87	0x3fceb254	1.6148171
88	0xc03c70f8	-2.944395
89	0xc04d8a94	-3.2115831
90	0xbed9154b	-0.42399058
91	0x4007ebac	2.1237593
92	0xbf760203	-0.9609682
93	0xc00a65ac	-2.1624556
94	0xc05791db	-3.3682773
95	0xbf54c531	-0.8311339
96	0xc0ac8c0d	-5.392096
97	0x3e0f8079	0.14013852
98	0xbfe7b822	-1.8103068
99	0xc00a5c25	-2.161874
100	0xbf0b37bb	-0.5438191
101	0xbeaecd3d	-0.3414096
102	0xbf0cf737	-0.5506472
103	0xbf29437d	-0.66118604
104	0xbecd2659	-0.4006832
105	0x3e8b3dd0	0.27195597
106	0xbd8e82fc	-0.06958577
107	0xbed9a284	-0.42506802
108	0xbdbf519b	-0.09341737
109	0xbf109821	-0.5648213
110	0x3dc8fee9	0.09814245
111	0xbdd649da	-0.10463305
112	0x3df7fd08	0.12108809
113	0xbcf28e85	-0.029608974
114	0x3e8fcbd7	0.28085205
115	0x3d640c56	0.055675827
116	0x3cc95025	0.024574349
117	0xbe4c4cd4	-0.19951183
118	0xbe187ec8	-0.14892113
119	0x3e373ecc	0.17895049
120	0xbd036442	-0.032078035
121	0x3df10f32	0.117704764
122	0xbd6a85dc	-0.057256564
123	0xbdf4cb14	-0.119527966
124	0xbdc973ec	-0.098365635
125	0xc007d255	-2.1222126
126	0x402ca13a	2.6973405
127	0xbfed14b8	-1.8521948
128	0x3c5e685c	0.013574686
129	0x3f100446	0.5625652
130	0x408900ab	4.2813315
131	0x3f8794e5	1.0592314
132	0xbfd19435	-1.6373354
133	0xc0088129	-2.1328833
134	0xc08704a6	-4.2193174
135	0xc095115a	-4.658368
136	0x3d9728bc	0.07380816
137	0x3ffbaa17	1.9661282
138	0x3ea02023	0.31274518
139	0x40321dbe	2.7830653
140	0x3d9c5d4c	0.076349825
141	0xc063395d	-3.5503762
142	0xbd85574c	-0.06510791
143	0x407c7531	3.9446528
144	0x3f8329b7	1.0247105
145	0x3e3c1b3b	0.18369763
146	0xbebed6c1	-0.3727322
147	0x3fb3b093	1.4038261
148	0x3ff9f8f8	1.9529104
149	0xbfb17e4a	-1.3866665
150	0x402864fd	2.6311638
151	0xbfb327fd	-1.3996578
152	0x3ea5c836	0.3237931
153	0xc01e957c	-2.4778738
154	0xbfb4e9d9	-1.4133865
155	0xbf997efb	-1.1991876
156	0x3b599410	0.0033199824
157	0xc053228b	-3.2989833
158	0xbfd6ffa5	-1.6796767
159	0x4037de7f	2.872955
160	0x403d2303	2.955262
161	0xc04651b3	-3.0987365
162	0xbfb17c58	-1.3866072
163	0xc0309d55	-2.7596028
164	0xc08d6c21	-4.4194493
165	0x3f65ff0d	0.898423
166	0x3f859b66	1.0438049
167	0xbda00c9b	-0.07814904
168	0xbf6423b6	-0.8911699
169	0xbf5479db	-0.82998437
170	0xc0033a6c	-2.0504408
171	0x3f289470	0.658515
172	0x40155278	2.3331585
173	0xc0d8e8ea	-6.778432
174	0xc049abca	-3.1511102
175	0x4065f836	3.5932746
176	0xc04861db	-3.1309726
177	0xbfaabb3f	-1.3338393
178	0x4052cdf7	3.293821
179	0xc07ee992	-3.983006
180	0x3f59afce	0.8503388
181	0x3ebb6f2a	0.3660825
182	0x4012a75a	2.2914643
183	0xbe901e63	-0.28148183
184	0xc06261d6	-3.5372214
185	0x3fa8ecd8	1.3197279
186	0xc02cd58c	-2.7005339
187	0x3fcb821e	1.5899084
188	0x4059ea40	3.4049225
189	0xbf942c49	-1.1576015
190	0x3d9cbe2b	0.07653459
191	0xbe95c74c	-0.29253614
192	0xbf9c5ceb	-1.2215856
193	0xbe16c9f9	-0.14725484
194	0x3f9d47df	1.2287558
195	0x3fd526d6	1.6652477
196	0x40169d42	2.3533483
197	0xc0929cad	-4.5816255
198	0xc01f81a8	-2.4922886
199	0x4065e448	3.5920582
200	0xbefb4ed8	-0.4908359
201	0xc052cad1	-3.293629
202	0x3f05b5be	0.5223044
203	0x3f63e983	0.89028186
204	0xbf6b56dc	-0.9192941
205	0x3f9108a3	1.1330761
206	0x4060cc12	3.5124555
207	0x3e8991bc	0.26869
208	0xc039c05d	-2.902366
209	0xbf850c6c	-1.0394416
210	0x3db2df77	0.08734029
211	0xc074c1d6	-3.8243308
212	0xbfce32bc	-1.6109233
213	0x4067a588	3.6194782
214	0x40aa9625	5.330828
215	0x3f8e1478	1.1099997
216	0xbfd040bb	-1.6269754
217	0xbdaa6d26	-0.083216
218	0xbeb78709	-0.3584521
219	0xc0335c57	-2.802511
220	0xbec30744	-0.3809148
221	0x40650da8	3.5789585
222	0xbfd3a0a2	-1.6533396
223	0xbf4d8739	-0.8028446
224	0x403f8781	2.9926455
225	0x3fa42057	1.2822369
226	0x4023e0a2	2.5605855
227	0x3fc6338c	1.5484481
228	0x3fb556b8	1.416709
229	0x3f21e43d	0.6323889
230	0x3feaebfd	1.8353268
231	0x3fbed9e2	1.4910243
232	0x409760a2	4.730546
233	0xbeef95b8	-0.46793914
234	0xc0dc8a1d	-6.8918595
235	0x3f613afc	0.8798063
236	0x3f32ce5f	0.6984615
237	0xbe99c773	-0.3003498
238	0xbe25ba3a	-0.16184321
239	0x3fd76deb	1.6830419
240	0xbee3b695	-0.44475237
241	0x3f84f960	1.0388603
242	0x3f2d7a11	0.67764384
243	0xbfc08195	-1.5039545
244	0xbf9da4a1	-1.2315866
245	0x3f7e42ea	0.9932085
246	0xbf070e4c	-0.5275619
247	0xc0028a97	-2.0397089
248	0x3ee0987b	0.43866333
249	0xbe13e3e7	-0.14442407
250	0x40803534	4.0064945
251	0xbf8fb613	-1.122744
252	0x3c34a952	0.011026697
253	0x400c0ebd	2.1883996
254	0xbf0c9bee	-0.5492543
255	0xbf98098a	-1.1877911

sub_modules.1.sub_modules.0.stages.stage0.conv3.weight f4 [24, 12, 1, 1]
0	0x3fc41aa8	1.5320635
1	0x3def6b8b	0.11690434
2	0xc0177b06	-2.3668838
3	0x3f99de01	1.2020875
4	0x3d8991fa	0.06717296
5	0xbf9db8a8	-1.2321978
6	0x3c52696e	0.012842519
7	0x40da247b	6.816953
8	0xbfd8ecd5	-1.6947275
9	0x3cc7e828	0.024402693
10	0xbcfde577	-0.030993206
11	0xbfe10252	-1.7578833
12	0x3edd705e	0.43249792
13	0x3fad20d8	1.3525648
14	0xbed41cc9	-0.4142821
15	0xbfa06f2c	-1.2533927
16	0xbd9b8ef6	-0.07595627
17	0xbf8691d7	-1.0513257
18	0x3f88dab2	1.069174
19	0xc04badc9	-3.182482
20	0xbf86e6a7	-1.053914
21	0xbf194c9e	-0.59882534
22	0xc087c7cf	-4.2431407
23	0xc0ced25c	-6.4631786
24	0xbf0b2213	-0.5434887
25	0xc0889390	-4.268013
26	0xc04af1c2	-3.1710057
27	0xbfd577e4	-1.6677213
28	0xbdaa365d	-0.0831115
29	0x3fcc4682	1.5959017
30	0xc0078be5	-2.1179135
31	0x3e98ba72	0.29829746
32	0xbfbe27b0	-1.4855862
33	0x3f9b5f58	1.2138472
34	0xbf4a9151	-0.79127985
35	0xbfe366df	-1.7765769
36	0x403a2fe9	2.9091742
37	0xc029174f	-2.6420476
38	0x4036bcd3	2.855275
39	0x3f9eaff5	1.2397448
40	0xbe83f402	-0.257721
41	0xbf2d449c	-0.67682815
42	0x408523b9	4.1606107
43	0xbf7304dd	-0.94929296
44	0xbf431ed7	-0.7621893
45	0xc0322e80	-2.7840881
46	0x3f840fe5	1.0317351
47	0x4041d09a	3.028357
48	0x40a9f162	5.3107157
49	0x3fe5f157	1.7964276
50	0x3fb0f87f	1.3825835
51	0x3fbb1e65	1.4618651
52	0x3e653135	0.22382052
53	0xbf800541	-1.0001603
54	0xc010de57	-2.2635705
55	0xc0039895	-2.0561879
56	0xbea713d6	-0.3263232
57	0xbfb7240b	-1.4307874
58	0xbfe9f1d8	-1.827693
59	0xc0ba628f	-5.824531
60	0x400dc024	2.2148523
61	0x4067eb44	3.6237345
62	0xbfc53441	-1.5406572
63	0x402283b2	2.539288
64	0xbe5c6698	-0.21523511
65	0xc0565b38	-3.3493176
66	0xbd21da0b	-0.039514583
67	0x3f9c4e02	1.2211306
68	0xc028b981	-2.6363223
69	0x3fcbf973	1.5935501
70	0xbec7b1dc	-0.39002883
71	0xc02984e0	-2.648735
72	0x4061101c	3.5166082
73	0x3facefbf	1.3510665
74	0xc002e087	-2.044954
75	0xc047162a	-3.1107278
76	0xbdc39262	-0.09549405
77	0x3e86025d	0.26173678
78	0x3fa607d1	1.2971135
79	0xc06d9686	-3.7123122
80	0xc0188250	-2.3829536
81	0xc0866439	-4.199734
82	0xc00391c1	-2.055771
83	0x3ffc00b2	1.9687712
84	0x3fc7f6e5	1.5622221
85	0xc08d1a43	-4.409456
86	0x4002433e	2.0353541
87	0xc0063dcf	-2.0975225
88	0x3d3770f3	0.04478545
89	0xbe59e5d5	-0.2127908
90	0xbffb6196	-1.9639156
91	0xbfc5375d	-1.540752
92	0x4045300e	3.081058
93	0xc09dc6bc	-4.9305096
94	0x4017a49a	2.3694215
95	0xbf9a5a72	-1.2058852
96	0xbf8928d0	-1.071558
97	0x403a4ec2	2.911057
98	0xbf073053	-0.5280811
99	0xbf9abbc4	-1.2088552
100	0x3d1d3e5b	0.038389545
101	0xbf741c1c	-0.9535539
102	0xc01e249a	-2.470984
103	0xbfd5da22	-1.6707194
104	0x408b9221	4.361588
105	0xbfc17300	-1.511322
106	0x3f0898ee	0.5335835
107	0xc03d9b92	-2.9626203
108	0x40a683b1	5.2035756
109	0x407298f9	3.7905867
110	0x3fcfe95d	1.6243092
111	0x40621067	3.5322511
112	0xbebe81ff	-0.37208554
113	0xc0055a9a	-2.0836549
114	0xc010caf0	-2.2623863
115	0x3e5be99c	0.21475834
116	0xc02b5f3e	-2.6776881
117	0x3ff3b940	1.9040909
118	0x3f2340a4	0.6377051
119	0x3e5c8662	0.21535638
120	0xbf1cc1e4	-0.61233354
121	0xbf93ad8a	-1.1537335
122	0x402c86dd	2.6957314
123	0xbfa51e50	-1.2899876
124	0xbd5bf640	-0.05370164
125	0xc09c6571	-4.887383
126	0xbf1993be	-0.5999106
127	0xc029970b	-2.649844
128	0x40801783	4.00287
129	0xbf814984	-1.010056
130	0x40b1e692	5.559396
131	0x3e27c5a0	0.16383982
132	0x401fc22c	2.4962263
133	0xbf670c25	-0.90252906
134	0x3ee0f0eb	0.43933806
135	0x3f0dd1db	0.5539834
136	0x3dcb4c2b	0.09926637
137	0x402224ec	2.5335035
138	0xc01b4370	-2.425991
139	0x402b44fd	2.6760857
140	0xbf9acb7e	-1.2093351
141	0x409660b0	4.6993027
142	0x3fac19ea	1.3445408
143	0xc01ac112	-2.418034
144	0x403f36db	2.987723
145	0xc0545dd9	-3.318228
146	0x3f813293	1.0093559
147	0x407585ad	3.836284
148	0x3e4bdbfe	0.19908139
149	0xc03ea846	-2.9790206
150	0xbf54b0e0	-0.8308239
151	0x3ebcc59d	0.36869517
152	0xc03f2e2a	-2.9871926
153	0xbf9e8c54	-1.2386575
154	0xbfde1af9	-1.7351981
155	0xc00ddcbf	-2.2165983
156	0x3f8dd6f9	1.108123
157	0xc089c3ac	-4.3051357
158	0x3f5c6366	0.8608917
159	0x3fa879ff	1.316223
160	0x3cc738d5	0.024319092
161	0x408fc2ca	4.492528
162	0x3fee218b	1.8603987
163	0x3fbb8779	1.4650718
164	0x3f19e15b	0.6010949
165	0xbfeffda4	-1.874928
166	0x400caa0e	2.1978793
167	0x3f98f2df	1.1949118
168	0x3fee4bfe	1.8616941
169	0x4087dcfc	4.2457256
170	0x3fadedee	1.3588235
171	0xbbecf68e	-0.00723154
172	0x3e051004	0.1299439
173	0xc04adcca	-3.169726
174	0x3f41b804	0.7567141
175	0xc00fa380	-2.2443542
176	0x3f7f7586	0.997887
177	0x3fd9a979	1.7004844
178	0x3f21c3d1	0.6318942
179	0x3fe635ae	1.7985132
180	0x400a4af1	2.160824
181	0xc006d6eb	-2.1068676
182	0x4036768c	2.8509855
183	0xc09a7edd	-4.8279862
184	0x3e879836	0.26483315
185	0x403336ab	2.8002117
186	0x40a52ab7	5.161464
187	0x3fdf8730	1.7463131
188	0xc001a990	-2.0259743
189	0x3fd30ca9	1.6488239
190	0x40560631	3.344128
191	0x3fe76782	1.8078463
192	0xbf4665c3	-0.77499026
193	0x3f7fb3bd	0.99883634
194	0x404c4db1	3.192242
195	0x406759dc	3.6148596
196	0x3bb20535	0.0054327496
197	0x4041b43f	3.0266263
198	0xc011d1ed	-2.2784379
199	0x3fc2da1b	1.522281
200	0xbf8da19a	-1.1064942
201	0x402125df	2.5179365
202	0x3f8cf14c	1.1011138
203	0xc0a2d9a1	-5.089066
204	0x3d935795	0.07194439
205	0xbf5e7890	-0.86902714
206	0x3e655653	0.22396211
207	0x402296ea	2.540461
208	0xbe6b51d4	-0.22980434
209	0xc05d3b22	-3.4567342
210	0xc067d8f3	-3.6226165
211	0xbf8f2e3b	-1.1185983
212	0xc02d0c33	-2.7038696
213	0x40a9c223	5.3049483
214	0xbf882c85	-1.0638586
215	0xbfeb4c54	-1.8382668
216	0xc006b44c	-2.1047544
217	0x402ee341	2.7326205
218	0x3ff5e024	1.9209027
219	0x4033bd29	2.8084204
220	0xbdb6ae61	-0.08919979
221	0xbfc46710	-1.5343952
222	0xbddfada4	-0.10921791
223	0xbf382e2a	-0.7194544
224	0xbea06662	-0.31328112
225	0xc0125cde	-2.2869182
226	0x409f2627	4.9734073
227	0xc03af9a1	-2.9214861
228	0x40101405	2.251222
229	0x40935e36	4.6052504
230	0x408359df	4.1047206
231	0xbfe16fe7	-1.7612275
232	0x3d84b677	0.06480115
233	0xbf53fb2e	-0.82805145
234	0xc00c98ca	-2.1968255
235	0x3e2b8f13	0.16753797
236	0xbf0e9029	-0.5568872
237	0x40354237	2.8321664
238	0xc00fe469	-2.248316
239	0xbfc59323	-1.5435528
240	0xc08733c1	-4.2250676
241	0x3f74a58f	0.9556512
242	0x404d0cfe	3.203918
243	0xc0326da2	-2.7879415
244	0xbe2c3b4d	-0.16819496
245	0xbfdc5438	-1.7213202
246	0x3f3fcd2f	0.7492246
247	0x3ec2eba6	0.3807041
248	0x40267856	2.6010947
249	0x3f181ea7	0.5942177
250	0x405bf4be	3.4368129
251	0x4089b281	4.30304
252	0xbfa6aaf7	-1.3020924
253	0xc0b27117	-5.576305
254	0x4009e7a9	2.1547644
255	0x3f806c3e	1.0033033
